classifier_model.npz (npz, 16857 bytes, 2 tensors)

wih f8 [15, 121]
000000 d0 27 81 27 10 2e a5 bf 56 af 11 68 94 2f e9 3f
       -0.041367058584526384 0.7870580704306842
000010 87 36 c7 f5 07 f3 fb bf be 15 1b 23 4b df d8 bf
       -1.7468337631902686 -0.38862875393200713
000020 4d 8f 0c 03 4d bf e2 3f 02 fe cc 36 f3 27 d9 bf
       0.5858521518280014 -0.39306335784564805
000030 2f 90 f4 39 2b ac c9 bf 35 af ad 82 77 74 04 c0
       -0.20056667642450196 -2.5568685731176637
000040 a7 d7 da 79 e4 6f d1 3f a5 dd 41 03 c6 78 df 3f
       0.27245437526596067 0.4917464286622482
000050 e7 fc da 44 3a dc db bf f6 26 e3 c1 ee 1e e8 3f
       -0.4353166267791963 0.7537759577619159
000060 79 d9 3b ac 78 34 c9 bf 66 e5 c3 83 1b 67 e7 3f
       -0.19691379937985312 0.7313363622226177
000070 e8 a7 e0 82 48 30 f2 3f 12 4f 52 b1 65 75 d2 3f
       1.1367879021076934 0.2884153587012729
000080 cc a2 00 ee ea 06 f3 3f 63 73 e2 0c b8 b2 ef 3f
       1.189188890168384 0.9905662776614971
000090 1d 0a a2 05 85 c2 fc 3f a8 f7 d7 13 65 53 b2 3f
       1.7974901409185187 0.07158500418151326
0000a0 2f 4f fd d3 7b e2 f4 bf c3 24 eb 64 e1 2b d9 3f
       -1.3052938729133066 0.39330324988675275
0000b0 15 b3 c6 c5 6a 1f df 3f 35 5d 30 b8 71 07 d7 3f
       0.4862925464065467 0.35982935893248974
0000c0 ae f8 1d e6 06 71 d7 bf fe 68 e6 db 79 67 07 c0
       -0.3662736174809521 -2.9255253963175383
0000d0 55 93 56 be 6e 88 d8 3f a2 31 f8 c7 0b ef 0a 40
       0.38332718455995024 3.3667216894738923
0000e0 0c 1e f6 5e 48 f8 c7 3f f3 e2 7d b3 cc a5 e0 3f
       0.18726448666369355 0.5202392106722001
0000f0 c3 34 b6 7b fe 93 07 c0 10 f8 f7 cf 09 47 c5 bf
       -2.9472627320270433 -0.1662304177734204
000100 05 c3 65 9c 59 94 da bf 28 c3 a8 17 c2 0c ea 3f
       -0.41530456803506893 0.8140573942274374
000110 95 f6 6d 8b 22 c4 c5 3f 7b f1 09 88 43 93 b0 bf
       0.17004806335528558 -0.06474706717739835
000120 8b bf e7 53 76 34 e7 3f 5b 4e b0 85 bd 95 d8 3f
       0.7251540793204055 0.3841394239000004
000130 2f 35 86 23 7f 27 b6 bf cf 57 77 23 01 a0 d1 bf
       -0.08654017083445774 -0.2753908964490365
000140 17 27 07 c9 42 ba d0 3f e9 9c f9 7e 33 cc d6 bf
       0.26136846191057955 -0.35621344947726513
000150 7b fe a9 36 a1 99 fc 3f 72 24 12 a9 44 a4 cc bf
       1.7875072608293567 -0.22376306777394778
000160 54 39 97 0a cc b2 f2 3f 43 06 1f f5 bd a8 c0 3f
       1.1686516202640478 0.13014959782417365
000170 13 1e 03 42 86 99 b5 3f 44 91 5c b1 46 a2 bc 3f
       0.08437384711862021 0.1118511374484728
000180 7d 33 a1 30 c2 57 e4 bf b6 4c 5c 74 b5 04 f0 3f
       -0.6357127141760511 1.0011496110280809
000190 33 33 3b d1 35 d6 e4 3f 69 e9 31 09 1e ce c8 bf
       0.6511487089679576 -0.19379020165417707
0001a0 f5 9b c8 8f 18 a4 d9 3f 58 bc 7e 58 43 0d c8 bf
       0.40064062157983865 -0.1879047567467491
0001b0 df ff 39 1a 15 7e f8 bf 90 78 ae 75 14 41 e5 bf
       -1.530781843612196 -0.6641943262545897
0001c0 9f 57 6d 12 34 a3 b4 3f 5d 18 62 c7 ef 7f fe 3f
       0.08061528634911362 1.906234530296863
0001d0 4c 13 66 e4 1b 59 da bf e8 e5 9d f4 11 39 f3 3f
       -0.4116887789207808 1.201433139356931
0001e0 88 62 fb 4e 96 4a 00 40 85 bd 86 a9 74 2d c0 bf
       2.0364195032564716 -0.12638719823506164
0001f0 ee 69 d9 49 c7 d2 8c bf e5 5b 46 9b 4e 09 d6 3f
       -0.014073903027726122 0.3443180576663834
000200 31 24 8b 8f 85 78 e1 3f 10 db ba ad 66 02 cb 3f
       0.5459621242126841 0.21101077540307545
000210 c6 08 52 c9 0f 8f e0 bf db 40 95 81 61 f2 cd 3f
       -0.5174635822334259 0.23395937754913274
000220 7f a2 46 1a 39 57 07 c0 4a 50 ae e9 f1 82 84 bf
       -2.9175893833929076 -0.010015382713199145
000230 7e 7b c8 31 bb c5 f2 3f 65 f5 5c b0 3b 3e eb bf
       1.1732742256787954 -0.8513468212692429
000240 98 85 f9 14 e7 c0 d4 3f 9b c6 c5 01 25 aa 01 40
       0.32427384422597916 2.208078397606028
000250 48 74 01 8c 43 4f b0 bf 34 53 1e 46 0e 27 e2 3f
       -0.06370947044475017 0.5672675485135188
000260 b2 13 9a 17 5a 81 c0 3f aa 3c 4e 69 20 03 e3 3f
       0.1289475074046585 0.594131665873552
000270 1f 90 2c 79 2d 85 e7 bf 54 eb 8d 0b 6e b1 b1 3f
       -0.7350070349389205 0.06911361486519968
000280 59 9b 44 46 8a 5f d3 bf f4 20 07 79 9f af e5 bf
       -0.3027063070498364 -0.6776883472275856
000290 0d ea 07 4f b4 9a c8 3f 69 be 1d 9d 80 ad ec 3f
       0.1922212015050068 0.896179491870453
0002a0 25 94 41 d6 83 6f d2 bf f5 8e fb e5 ee c3 dc 3f
       -0.28805633471921716 0.44945881327861
0002b0 7e 91 db df 44 31 f9 bf 69 12 66 2d 84 ef d8 3f
       -1.574528574413392 0.3896189158770427
0002c0 80 53 a1 ee 65 ea cf 3f 42 d8 5b 1c 66 42 04 c0
       0.2493407645403316 -2.532421323349838
0002d0 fc d0 55 e4 08 eb d9 3f 5a ae 42 a5 7a 7e ef 3f
       0.40497038172112787 0.984189341329919
0002e0 53 af 67 d9 15 f3 c9 bf 3e 98 f8 1a 24 1c e0 bf
       -0.20273087611655657 -0.5034351851252337
0002f0 b4 71 4d 3b 28 9e db 3f fb c7 5c 9d 8c 5d d4 bf
       0.43152814666043615 -0.3182097946875044
000300 cb 04 7b 53 27 65 e3 3f ad 48 b1 3f da aa de bf
       0.6060978537062963 -0.4791780111310214
000310 02 55 bf ee e0 c0 c4 3f a2 c2 d5 5c f6 4b cd bf
       0.16213618905627675 -0.22888068707427062
000320 49 9b ee 6f 81 e5 c3 3f 7c 14 ef 03 93 ae bb bf
       0.1554414555114028 -0.10813254209559092
000330 33 4f 3b f2 01 11 89 3f 88 58 0e 19 cd a0 c2 bf
       0.012239470677208075 -0.145532262071985
000340 36 97 5a bc 54 c2 f8 bf 75 2d e4 38 97 f5 6d 3f
       -1.547444091565422 0.0036571458396161224
000350 39 c3 ca 0f 3c c9 c4 3f d5 fa f1 7e 02 09 d2 3f
       0.16239119311424036 0.28179991147037003
000360 85 7d 4d 7f 2b 8c f2 bf 50 9a e7 59 d7 3b d8 3f
       -1.1592211697351058 0.378652417943532
000370 1d 2c 7d ed 7e de a8 bf 16 24 01 64 79 4a d9 3f
       -0.0485725083259114 0.39517054334697954
000380 6f 5d 70 2a 79 d0 f4 3f 80 67 c9 2a eb e3 c4 bf
       1.3008968026896033 -0.16320552434154578
000390 16 b6 5a ae ea b0 82 bf f9 3f 50 08 88 62 e4 bf
       -0.009126504369613857 -0.6370277559635716
0003a0 44 65 3f 13 c3 94 d0 3f dd 84 6b e8 87 98 06 c0
       0.25907971267368546 -2.824477973729343
0003b0 96 98 20 87 07 33 c7 3f 84 f6 7f 24 7a 1a f3 bf
       0.1812447938729675 -1.1939641404891583
0003c0 68 9b cc d5 32 47 e4 3f a0 85 62 99 ec 2f db 3f
       0.6336912322775392 0.42480006197919273
0003d0 96 fc 9b 42 9e 93 b4 bf d7 3a 91 87 01 8f e1 3f
       -0.08037747503475354 0.5487067840384395
0003e0 75 e9 b0 33 8b f9 c4 3f 47 b5 1c cc e6 b5 db 3f
       0.16386547111489916 0.4329773896486881
0003f0 6a 4b b9 df 68 37 d5 bf 11 e7 91 06 c7 18 a3 3f
       -0.3315069374850085 0.037298411895745905
000400 5c 71 03 76 df 30 d4 3f 53 99 1a d8 0c 69 e0 3f
       0.3154829647517283 0.5128235073832833
000410 af aa 14 bc ae ed b5 bf 9b 64 30 12 92 89 d5 3f
       -0.08565799800696071 0.33652164245865784
000420 48 4d 4f ac a2 c2 c8 bf d3 55 f3 ce 16 5d a2 bf
       -0.19343980229914792 -0.035866463434711136
000430 94 da ab 2f db b6 d0 3f 35 1f c0 a8 d2 41 e1 bf
       0.2611606565036848 -0.5392850204379785
000440 d6 5b c6 ff 7b 23 d8 3f 34 00 64 4e 48 ec e8 3f
       0.3771657941628609 0.7788430720393138
000450 e4 70 70 13 be d2 e2 3f c0 57 cd a4 0c 37 f9 3f
       0.5882254008934322 1.5759397924025365
000460 12 d1 32 b2 34 95 e7 3f 6b b9 ca 8e d2 73 d1 3f
       0.7369636040153031 0.2726942438556736
000470 91 75 72 6d 54 36 d0 bf 95 a6 90 aa d7 57 9c 3f
       -0.25331602752870547 0.02767884233995817
000480 ed 66 de 34 d0 70 ce 3f d3 9c 18 ee c8 61 cb 3f
       0.23781778890116048 0.21392165780819158
000490 25 ee 6b 49 62 93 b7 3f 18 34 ea 7b 82 d9 f4 3f
       0.09209265034217447 1.3031029549049489
0004a0 3a ef e2 c8 f2 4c d6 bf ba f9 33 09 37 9c ea 3f
       -0.3484465562612403 0.831569211935679
0004b0 b5 42 21 c7 3d 8e d5 3f 0e 28 d0 7e 4e 1e f0 3f
       0.3368067211750188 1.0073990777623325
0004c0 d6 27 21 39 38 46 85 bf b5 97 af b9 4c 63 ce 3f
       -0.010387839549497995 0.2374053866071201
0004d0 a3 b4 36 77 b6 6b 73 3f e7 bc 62 a3 b4 df d0 3f
       0.004741394764477355 0.26365390735277433
0004e0 9a 8c 6b d0 6d 3b be bf f1 b7 9c ac fa 70 d8 3f
       -0.11809431398755735 0.3818957029023969
0004f0 2b 71 fb 74 a2 6c c1 bf dc c2 62 a7 ad 9c ba 3f
       -0.136127764816487 0.1039532216698364
000500 75 ea 30 d0 24 b5 d2 bf 4a 39 40 2c 83 ea c9 3f
       -0.292306140243148 0.20246925030410018
000510 b6 b5 f5 21 22 9b de 3f 31 71 e2 f4 d3 c7 f1 bf
       0.4782185870779715 -1.1112861219217616
000520 0e 40 e8 bf 72 a3 66 bf 0b a0 dd 61 7c f3 df bf
       -0.002763485069642974 -0.499236198017116
000530 ff 24 ec ad 5a 42 bc 3f 3a fa ba ac ae 98 d9 bf
       0.11038748499062832 -0.3999439894504665
000540 eb 47 83 1b 1a db d3 bf 1f 45 d1 b1 4e ec cf 3f
       -0.3102479237251134 0.24939902956479273
000550 20 4e a0 e1 b2 b5 00 40 17 df e2 03 a1 24 d4 3f
       2.0887200953527696 0.3147356546355566
000560 7e 30 9c be bf e8 e0 3f 01 33 ee 0b c2 ca de 3f
       0.5284117434362228 0.4811253658779578
000570 49 91 c4 ac 84 6d c1 bf 62 eb 76 ec 01 82 de 3f
       -0.13615473209314136 0.4766850289558332
000580 fa 6a 70 a0 b3 85 88 3f db aa d8 28 1f 3a 8e bf
       0.011973765691484218 -0.01475929587748708
000590 8d 97 b7 da dc f8 fa 3f 6d 90 19 4b f2 d2 dc 3f
       1.6857574981345096 0.45037515005083756
0005a0 a2 26 9c 90 9e 8b e2 bf 94 c2 f7 8f 6e d6 e8 3f
       -0.579543383065545 0.7761757671233505
0005b0 cd 32 34 ef 5c 36 db 3f 7f 4d b5 15 04 e1 f2 3f
       0.4251930557227695 1.1799355361916637
0005c0 c4 6c 8d 3f c9 3b d7 3f 08 5d cc ad ac c7 d2 3f
       0.3630240555409723 0.2934371659516306
0005d0 12 84 a6 03 be ca 9f 3f 8a 5f 39 78 bd c6 cd bf
       0.031046837780767396 -0.23262756700819082
0005e0 91 4b ae 42 09 9a d8 3f a5 5b 91 1e 0a f1 c1 3f
       0.384401621931084 0.14016844265526376
0005f0 8c 96 55 4d 1d 5a c8 3f f5 40 0f 5e f2 38 f3 3f
       0.1902500751122499 1.2014030145838295
000600 6b 8b 08 bf f6 0d f0 3f f5 7c 97 2b 4c a5 c7 bf
       1.0034091436616233 -0.1847319805956215
000610 bd 97 22 c5 6d a6 f0 bf 0b 3a 48 51 af 6f a5 3f
       -1.0406320286360675 0.04186771266187258
000620 c4 93 67 ec 1c 86 a9 bf ab 93 4c 2d a5 87 d5 3f
       -0.04985132585333177 0.3364041273474025
000630 d7 bf 89 20 0f bb fe 3f 8d 59 a7 d8 8b 5a d6 3f
       1.9206687232035529 0.3492765060194863
000640 35 8e 6e cc 30 1c ce 3f c0 7d 5d dc ed c7 d8 3f
       0.23523530942940032 0.38720270652808253
000650 18 59 43 6f 3c a8 d7 bf 5d db a1 91 c3 cd e0 3f
       -0.36964331498656255 0.5251176685695601
000660 d8 04 5b 9c 8c 5c eb 3f 95 18 c7 0a 57 ee eb 3f
       0.8550475171870415 0.8728442392828294
000670 1a b2 af d2 ae 0c e5 bf fd d6 10 f0 df 7f fe 3f
       -0.6577982058493632 1.9062194230622815
000680 3f 71 ee b5 0f 47 fe 3f 3b 07 d8 ab 61 34 a8 3f
       1.8923489672370832 0.04727463934615491
000690 1e d6 3f a0 7a 64 bb 3f 35 e0 dd 8f c3 61 c0 bf
       0.10700193798387445 -0.12798351788274123
0006a0 ae 85 e7 4d e1 67 cd 3f 12 f5 87 08 bc 48 a7 3f
       0.22973266891407945 0.045476795236007686
0006b0 90 b1 87 fc b2 16 ae 3f 53 7e 6c a9 99 3e c3 3f
       0.05876693089143992 0.15034790775915727
0006c0 b1 07 27 3a bc 87 c1 3f 45 d0 e1 83 4a 97 dc 3f
       0.13695481147266045 0.4467340743933657
0006d0 ba b8 b4 5a 9c d4 d3 bf b7 cc 9b 7a 1f 90 bc 3f
       -0.30985173089983287 0.11157414191602553
0006e0 5e 0f f6 c4 6b f0 c6 3f 38 3a 8a b0 20 b2 e0 3f
       0.17921206586117483 0.5217441032453456
0006f0 b9 33 e5 7d 32 8e da 3f f4 8f 45 54 6e 3d d5 bf
       0.4149290303656091 -0.3318744490591137
000700 48 02 73 cb 25 32 dd bf 27 82 49 f4 ef 38 ec 3f
       -0.4561857687768094 0.881950356601071
000710 4b 1b 34 a8 4c 06 c3 3f 0e e5 32 1e d0 29 db 3f
       0.1486297437006335 0.42442706059553437
000720 53 22 c2 6a 65 b6 cb 3f 4a 34 51 c8 61 3f ea 3f
       0.21650378907021892 0.8202370560117143
000730 06 9e 68 0f 87 76 d0 3f 71 5b 4a 4b a4 66 e2 3f
       0.2572343492961128 0.5750295134083513
000740 78 c3 2a ca 55 0d 00 40 89 93 5b dc b8 40 f3 3f
       2.0065112871456527 1.203301296970695
000750 65 50 9e bf 6e 16 b8 bf 3a 4e 50 3a 57 48 b6 3f
       -0.09409229448493901 0.08704133199381028
000760 6a ee 0c 95 62 40 bc bf d5 e1 4a d1 15 e7 de 3f
       -0.11035743845871485 0.4828543228027489
000770 22 a5 09 99 90 8a a0 3f 87 c9 83 68 af 05 c9 3f
       0.03230716579566663 0.19548599818478982
000780 b3 39 db 22 57 79 e3 3f 78 aa 35 36 75 82 ed 3f
       0.6085620575702734 0.9221750315458186
000790 b3 c1 fc c6 c3 e4 e0 3f 0e cd d3 cd 56 59 cf 3f
       0.5279253851386357 0.24491391229785403
0007a0 cb 72 61 5b 85 1d 04 40 c9 b3 11 ec 56 87 a6 3f
       2.5144145144571204 0.04400130874351011
0007b0 52 83 83 16 d8 f8 ec 3f de f4 95 7a 1a 84 f0 3f
       0.905376476261248 1.0322518146997974
0007c0 c0 e7 a8 7a 27 08 e4 3f cc ff c9 91 cb 00 e8 3f
       0.6259953876208257 0.7500970694963995
0007d0 24 78 9c f9 7e 42 cd 3f 69 87 45 ef 97 e7 c3 bf
       0.22859179676100994 -0.15550517256911725
0007e0 5a ab 7d aa 8c e3 9a 3f 14 8a 0d 04 81 91 b6 bf
       0.02625865736574027 -0.08815771435687508
0007f0 8a 3c bf b2 82 57 d8 3f 41 a2 d3 b3 36 df d6 3f
       0.38034121948016575 0.35737388192368164

who f8 [11, 15]
000000 a5 49 2c 24 d9 6e e2 3f c2 58 5a ec 3c b3 e0 bf
       0.5760312754157907 -0.5218796364086062
000010 ec a8 23 c7 a0 26 e5 3f ef 9c c7 22 21 e3 0d c0
       0.6609653367461568 -3.7359030453841267
000020 55 27 60 cc 5e 18 0c c0 3f b5 ad fe fc eb da bf
       -3.5118995634883654 -0.42065358038856354
000030 5c b4 70 7f f0 f8 06 c0 0c 3c 8c 0b 18 50 00 40
       -2.8715524631757443 2.039108362404937
000040 fa de e7 fc 4e c0 af 3f ad a2 5e b4 ed 52 d6 bf
       0.062014072773250065 -0.34881155599809227
000050 7a f3 d1 57 c4 b9 df 3f fe 70 35 f0 8c 8f d7 bf
       0.4957133157366155 -0.3681366296566607
000060 d1 42 5c 83 23 08 e3 3f 9c aa 49 f6 7d 79 ea 3f
       0.5947434964783388 0.827330571203976
000070 08 39 76 30 a7 df e0 3f 02 42 f3 5f 22 38 fc bf
       0.527301401760071 -1.7637046573692037
000080 39 96 f0 35 b1 37 f2 bf 82 66 b5 ae f2 0d f4 3f
       -1.1385967356703885 1.2534052681498058
000090 50 41 9f 10 99 80 ff bf 03 b4 b1 e0 f6 83 e5 3f
       -1.968895974092522 0.6723589314038921
0000a0 8b f0 75 da da 94 eb bf 5c df 88 08 d9 02 f4 3f
       -0.8619207636652545 1.2506952603707395
0000b0 ea c5 03 55 4c 3d e7 3f b8 0d ee 3d 8c 3d e7 3f
       0.726232687038814 0.7262631616180704
0000c0 40 81 f7 9a d4 c1 96 3f 47 a7 01 88 17 e6 04 c0
       0.022223779638694596 -2.612349569845637
0000d0 a5 55 75 27 bf f5 ec 3f ab 57 ac 4e f7 0d 00 c0
       0.9049983759565988 -2.006819357523417
0000e0 97 fb 71 3f e4 e3 f8 3f a7 4e 5e a2 6e 9d 02 c0
       1.555637595971097 -2.326871174338368
0000f0 f4 17 a8 1a 8b 3c c2 bf 10 14 57 15 c4 9f d6 bf
       -0.14247263719170145 -0.35350133975981723
000100 a3 06 e4 c5 c1 2f bf 3f 75 70 e2 df 95 dc dd 3f
       0.12182246285740432 0.4665884672520016
000110 67 dd 98 90 7c 71 f6 bf 1c fe 54 9c 70 2f cc bf
       -1.4027066849065137 -0.22019775041006617
000120 63 8a 82 95 03 d0 fe 3f 21 3f c9 04 6d 1d f2 3f
       1.925784667990819 1.132184046455173
000130 f3 7a 1d d7 df f2 fb bf 21 b7 35 33 fa 50 f2 3f
       -1.7467955019889672 1.144769859350568
000140 fb db 5f 30 0a 08 fd bf f6 7b 4d 09 8d 75 06 c0
       -1.8144628419520348 -2.8073979117175396
000150 ee 76 19 8d 6f 17 e6 3f 97 e6 c3 5b 28 f9 f8 bf
       0.6903608089303057 -1.5608295044498044
000160 7f 63 f3 0c 03 1b ec bf db 57 0b f2 7d d4 ab 3f
       -0.878297353071602 0.05435556010858963
000170 ae 78 f2 d1 eb ed d9 3f 90 52 83 fa 87 0b 0c c0
       0.4051465559258628 -3.505630452282567
000180 6c d6 cc 28 db b0 a0 bf a9 e3 8f f3 2c 5e ed 3f
       -0.03259930489586513 0.9177460438796646
000190 d2 fd 7a 77 65 92 e7 3f d6 98 2c 4e 84 c5 f2 bf
       0.7366206487276321 -1.173221879356381
0001a0 3f ce 51 ad 66 04 e3 3f 80 72 3f ee b1 f0 03 c0
       0.594287241472962 -2.4925268757927483
0001b0 36 81 22 b8 65 e8 c1 bf 20 9a 13 c9 e8 3e 03 c0
       -0.13990470400768523 -2.4057174405200072
0001c0 c2 7c 10 aa e8 df ef 3f 81 11 a9 9d 11 48 c8 bf
       0.9960826226778396 -0.18969936559927805
0001d0 0e 3e c8 57 c0 c0 d3 3f 1d 4f 65 87 22 ab c9 bf
       0.3086396081207291 -0.20053512202377358
0001e0 f6 3b b0 78 b2 20 d8 3f bc 58 0f 6a c9 d6 ca 3f
       0.3769956759069254 0.2096797721739615
0001f0 a7 3d bd bc d8 45 eb bf c8 7b 7d 1a 10 9f c2 bf
       -0.8522761999428682 -0.14547921460595448
000200 3e 8a 2d ee 80 1f e6 3f f5 77 ed 1c 48 1a cd 3f
       0.6913456584846427 0.22736455357056654
000210 00 9f 9f 8a 1d 37 fb bf 67 a7 9a 79 7e 1a d0 3f
       -1.7009559073430296 0.251617068056126
000220 ac 69 1e 74 a2 db ff bf a0 9e 7e 8e 98 67 8c bf
       -1.9911217246904966 -0.01386946854456933
000230 3c b8 cd e0 25 5b ef 3f fe b5 d3 20 38 b0 fc bf
       0.9798764601416745 -1.7930222780518075
000240 75 55 71 11 16 93 c2 3f 61 dc bb b2 9e f3 01 c0
       0.14511371471114 -2.243955036504801
000250 72 e1 4b d2 65 f8 c0 3f 93 70 db 50 da 98 f1 3f
       0.13258049744014105 1.099817577217469
000260 8c b1 6b 69 57 11 ed bf 14 3c 94 38 b1 7d ed bf
       -0.908366876506578 -0.9215932946261796
000270 ec 1e 0b fd 93 c0 e5 bf cf f8 1f b6 1e ff f0 bf
       -0.679758066392393 -1.062285148072579
000280 e8 4d a7 3c cd 21 c3 3f 1e 5d 1c de 15 12 b7 3f
       0.14946904622648494 0.09011971161486484
000290 df be 40 8b ee 77 10 c0 38 2b a9 1f 63 84 01 c0
       -4.117120910479314 -2.1896421884061077
0002a0 27 4e c9 d1 e0 b6 fc 3f a1 b2 95 a0 27 32 f7 3f
       1.7946479983119248 1.4497448227731768
0002b0 f5 0a 56 bc 4f 3d ee bf 5c 1a 8d 63 a6 1b e8 3f
       -0.9449843100013299 0.7533752388342907
0002c0 7d 9a 66 f1 36 1c d6 3f 2a 93 24 78 51 da ae bf
       0.3454720838002812 -0.06025938598239684
0002d0 e3 72 38 7b a1 76 eb 3f 5e 80 d6 b9 24 f2 fc bf
       0.858231297173543 -1.8091170558255025
0002e0 39 f1 45 99 ed be f6 bf c6 61 3f 5e 07 59 f3 3f
       -1.421613310550198 1.2092355424448313
0002f0 1e b3 8f b1 14 d1 f0 3f d8 c2 42 e8 b4 f1 01 c0
       1.0510451255788165 -2.2430208344816087
000300 cf fd d1 41 97 28 fd bf 48 83 ca 6a 15 2f b6 3f
       -1.8224098750214244 0.08665593964771034
000310 df a5 f3 24 aa 5c fb 3f 1e 5b 21 59 02 28 c8 3f
       1.7101231997897839 0.18872098304810775
000320 1d ba a5 c7 ed 2a c8 bf ea be e6 b7 ca b8 d1 3f
       -0.18881008385092538 0.27690380057445785
000330 9f de 0a 63 85 6a f4 3f 6b 39 cc 76 a3 c0 f0 bf
       1.2760061138959953 -1.047030891469684
000340 ef 7d 8c 11 fe 68 ff bf 1e fd 58 3e 94 02 ab bf
       -1.963132923650729 -0.052754051790993226
000350 10 d4 af d6 ec bc a0 3f 43 cb f1 30 e4 af e0 bf
       0.03269138451279485 -0.5214711147258203
000360 8e 17 56 0a ff 81 01 40 56 6e f5 c7 2d 80 05 c0
       2.1884747321627804 -2.6875873204969976
000370 56 12 8d 28 ab 9b f2 3f 03 53 cc e0 36 43 da 3f
       1.1630050262475797 0.41035243943160554
000380 14 a1 77 21 15 64 f9 3f a7 29 57 6e 3a 8a d2 3f
       1.5869342143360585 0.28968678260266717
000390 8f d5 96 9d 0d 3c 04 c0 13 b8 1b 25 6a 33 c8 bf
       -2.5293228446632336 -0.18906904994895565
0003a0 6f 3d 90 d5 3a 18 e4 3f ee 66 14 36 06 26 ee bf
       0.6279577418480765 -0.9421416336292319
0003b0 9d ab c6 2f e4 8f f6 bf b2 00 fa 87 7f 68 01 c0
       -1.410129725098819 -2.1760244963807844
0003c0 22 ca 4f 17 60 22 f5 3f 3d 79 89 98 4e db a9 3f
       1.320892420827143 0.05050130474113466
0003d0 0e d0 cd ba fe f5 ef bf b6 c9 16 7a dd 3f db bf
       -0.9987786911501659 -0.42577301905398757
0003e0 9f bf 08 64 7c 67 df 3f 34 6f ed 4a 65 ab f9 bf
       0.490691278161643 -1.6043446471075642
0003f0 64 02 19 e3 9f 2f ef 3f 23 52 04 e0 8f 7f 01 c0
       0.9745635447980701 -2.187286138660299
000400 b7 f8 f5 88 c1 37 ab bf 5e 8e 2a b4 50 82 02 c0
       -0.05315975949177825 -2.3136304927336786
000410 b0 f9 21 6c 05 e9 f6 3f 5a d1 e7 13 82 3d ff 3f
       1.4318899368223406 1.9525166299400412
000420 49 86 14 6a 27 f5 09 c0 9a fb 41 ae 32 d6 d6 bf
       -3.244704083205566 -0.35682360665662716
000430 bd 38 78 bf 60 3a e7 3f d2 21 96 4d 57 47 f9 bf
       0.7258762111321385 -1.57991724307259
000440 43 a5 19 28 00 6e c8 bf 0a 89 38 23 77 ac f3 3f
       -0.19085695226685048 1.2296058059515098
000450 50 31 14 1e 41 a7 f3 3f a2 83 63 3b cf 0b ea 3f
       1.2283335852581168 0.8139415893493729
000460 2d 56 a3 86 83 20 fd bf 79 10 4e a7 19 af f7 bf
       -1.82043793290121 -1.4802490744923757
000470 33 00 b6 b6 2b 27 c9 3f c6 84 f1 9b 89 08 00 c0
       0.19650789662773746 -2.0041687186318056
000480 41 2d 1c 12 06 4b ec bf 9f ea b8 8e df 4a e4 bf
       -0.8841581681930749 -0.634139803652335
000490 e3 0e 8b 33 80 5a a2 bf 97 9a b4 0b c9 7e ec bf
       -0.035846716205495864 -0.8904767254469615
0004a0 2e 66 49 51 c0 75 ca bf d8 92 b1 e6 f2 3b dd 3f
       -0.20671848267629528 0.45678398636509376
0004b0 6c 0c cc 3f b0 3f 0d c0 3f 98 f7 54 4d 07 f0 bf
       -3.6560978874345462 -1.0017827338247256
0004c0 17 99 96 19 44 7a c2 3f 7c 21 d7 2a 14 95 f4 3f
       0.14435626267840782 1.2863961862040858
0004d0 17 98 80 ff 0c 47 d0 3f 2e d1 df 0e 95 e0 d1 3f
       0.25433659507177836 0.2793324132210441
0004e0 cb a6 ba 42 47 40 e5 3f 49 89 dd 16 27 27 03 c0
       0.6640964797308809 -2.394117525707007
0004f0 a7 e2 da 38 46 de fe 3f 40 4e f2 32 a8 b0 fc bf
       1.9292661877536064 -1.7931291570756827
000500 0b fe 10 a5 7a 0b f1 3f 7b 4b 05 71 8a 58 07 c0
       1.0653025100617721 -2.918232806181036
000510 77 81 04 e6 38 af f4 3f 25 ad b1 83 7a 62 cf bf
       1.2927788720190543 -0.24519282751439522
000520 55 a5 ee 26 5d 9a ba 3f
       0.10391790581220069
