ner_model.npz (npz, 12878 bytes, 2 tensors)

wih f8 [15, 97]
000000 16 72 a5 41 23 88 e9 3f 70 c4 07 50 7c 46 dc 3f
       0.7978683740762473 0.44180209937537196
000010 7e c8 ed 7e e9 18 95 bf ab a4 d8 ea aa 96 c9 3f
       -0.020602844593164076 0.1999105116567866
000020 1d 3d 0b d6 cc 2f e4 3f cf dd 95 57 f2 6c ea 3f
       0.6308349781556079 0.825799151482835
000030 68 a9 13 7a 4c 2d d4 bf bd 10 76 ca 53 cf de 3f
       -0.3152648155361448 0.48140425464249487
000040 79 e0 e4 45 39 3d e3 bf 15 db 85 31 b1 60 b7 bf
       -0.6012235989683311 -0.09131915530256791
000050 51 cc e6 27 f2 6d e2 3f 16 d3 2e 37 7b 08 e1 3f
       0.5759211329772232 0.5322853162566357
000060 85 69 08 c1 dd 96 e5 bf 40 89 4e 7f d2 fa e0 3f
       -0.6746662874386834 0.5306179510555822
000070 e9 1e 68 72 ca 89 d0 bf d5 f8 92 b0 33 5d d0 bf
       -0.2584100835087911 -0.25568859332623833
000080 72 39 d0 0e 16 52 de 3f bb b8 72 7d d2 2b e4 3f
       0.4737601418172722 0.6303493929060758
000090 59 a9 0d bd 39 31 d0 bf 32 85 c0 8f 72 12 d7 3f
       -0.2530044885849257 0.3605009464100305
0000a0 37 eb 15 41 aa ea e9 3f 0d 6d d8 3b a8 d4 e8 3f
       0.8098956366733095 0.7759591263633482
0000b0 55 c3 f7 33 73 b7 bb bf b1 c4 81 1a c3 8f ae 3f
       -0.10826797503228865 0.05969056795664452
0000c0 6a 7e 13 a0 d6 c6 d3 3f 75 fa d4 44 ba eb dc bf
       0.3090111315959577 -0.4518876716792087
0000d0 a3 4b d5 27 38 b0 d2 3f 3e 29 9d 13 34 3a e5 bf
       0.29200557603797445 -0.6633549101909819
0000e0 41 8b 06 1b ea be de 3f db b9 28 a0 44 a7 d4 3f
       0.48040249480452607 0.32270923271690116
0000f0 cf cb 2c a4 fa 5e e7 3f 08 5c 9d 35 1b 72 dc 3f
       0.73034412446429 0.4444644950467027
000100 1d 6f 12 a8 7d a8 e5 3f 93 60 a3 e7 d2 a3 8c 3f
       0.6768177302032857 0.013984344190632469
000110 a2 02 43 88 ce 7a ea 3f 94 97 27 3f ca 7e e2 bf
       0.8274910603868941 -0.5779772981156719
000120 9f 9e 0a 85 08 de e2 3f 24 cc fc c9 6a 9a ef 3f
       0.5896036718813383 0.9875997490947879
000130 eb e9 12 82 22 3b 96 3f 58 35 ee fa 89 cb d8 bf
       0.02170995634944887 -0.3874230337613276
000140 0b 08 71 9a 7d d7 e8 3f 5f 17 5c 30 54 c4 e1 3f
       0.7763050095020402 0.5552159256483086
000150 06 7a 4c d4 91 96 bc 3f 44 ca 38 6b 6b 21 d0 bf
       0.111672510462519 -0.25203977080233053
000160 41 c2 69 59 09 62 e7 3f c0 f2 aa d6 45 da 8a 3f
       0.7307173487043387 0.013111634839668596
000170 19 28 b5 eb 81 6d e5 3f 64 4b 20 12 e4 b5 e6 3f
       0.6696176150956062 0.7097034791971564
000180 38 51 43 9c ac 61 d1 3f b6 19 60 46 70 ec 89 3f
       0.2715865636830759 0.012658002040564092
000190 b9 91 2c 27 46 76 b8 bf ba 7e 95 d1 ca 79 b8 3f
       -0.09555471855543986 0.09560840241237659
0001a0 46 5a 8f f5 f1 eb ed bf 97 b4 2e 27 d5 3a df 3f
       -0.9350518985837162 0.4879658587113424
0001b0 ac d4 90 df a9 d7 d6 bf 7b 2e f9 95 71 32 e8 3f
       -0.3569130595454435 0.7561576775710387
0001c0 a6 9f 3e fa 97 72 e9 3f 4f 3c f9 1e 92 52 d5 3f
       0.7952384841528228 0.3331647207714398
0001d0 03 1d 54 b9 9c 26 e5 3f 81 ed c3 b5 84 27 e1 3f
       0.6609634036730373 0.5360740232567168
0001e0 70 cf 7a d6 e8 56 d4 bf 30 45 1a 18 02 60 e9 3f
       -0.3178045362976638 0.7929697485689413
0001f0 be 5e 66 10 e2 19 d9 bf fa 2c 46 cb ba 82 b5 3f
       -0.39220477677870835 0.0840260263704983
000200 ff 2d 45 5a 3b 03 e8 3f 7a 29 73 3f 78 8c e6 3f
       0.7503945124712458 0.7046471823935427
000210 f6 82 7f e9 1c d5 99 3f 7c aa a8 12 50 bb da 3f
       0.02522702384146932 0.41768266508248764
000220 44 84 e8 fd ec fa a2 3f de 7b 3d bc 87 7c c6 3f
       0.037070661539708755 0.17567536059774985
000230 85 ac 78 22 3b 91 c8 3f 9d 45 4d eb ec 34 a2 bf
       0.19193209822819682 -0.03556003925644833
000240 3d bb ed 58 73 ef a1 3f 8b a7 1b 91 45 72 da bf
       0.03502998791269938 -0.4132245938368377
000250 17 8a fc fc 0d 35 d7 3f 9f 60 85 f8 f5 03 c6 3f
       0.36261319833480016 0.17199587473692632
000260 42 62 6a 0f a6 b5 e1 3f d9 38 48 88 e2 47 c6 3f
       0.5534239102444831 0.17406875280761971
000270 8e 5b d7 c5 04 13 e5 bf b0 4c ff e2 26 90 ec 3f
       -0.6585716117941602 0.8925966676273642
000280 36 41 00 bb cb f4 e2 3f 29 f4 bc da 31 a0 ee 3f
       0.5923823025096115 0.957055022452214
000290 d5 3b 12 9e 09 97 dc 3f 5b 25 a6 90 e3 09 e2 3f
       0.4467186015762626 0.5637071442771843
0002a0 8a 15 20 74 78 45 dd 3f 96 b1 7e 46 3a 76 b4 3f
       0.45736514416088225 0.07992901059214427
0002b0 08 81 28 11 b7 2b da 3f 58 94 80 3d 67 17 a3 bf
       0.40891815829856215 -0.037287927873230486
0002c0 31 ee fe a5 a4 4e e7 3f 75 7b 3b 90 5b 3a e2 3f
       0.728349994860258 0.5696237389600883
0002d0 fd 92 42 6e 13 65 de 3f 4a 11 8b 56 76 4d d9 bf
       0.47491918342193157 -0.39535292102325015
0002e0 cf 34 3d d5 d8 b3 ce 3f d5 8a 4b 73 6a df d0 3f
       0.23986349498810575 0.2636362195900522
0002f0 24 65 df 78 eb 2b e3 bf e7 45 86 86 dd 48 ef 3f
       -0.5991113053125088 0.977644694083378
000300 da a6 14 0b d9 89 e5 3f 2e fa 2f 62 10 8a c2 3f
       0.6730771271151881 0.1448383788519591
000310 aa f6 23 f0 a6 14 d7 3f c0 e2 f3 88 0f 0a 5d 3f
       0.36063550425738333 0.0017724181851105775
000320 99 ba 9a e9 6a f5 d1 3f d6 09 2c a4 6e f4 94 bf
       0.2806041032116951 -0.02046368481661339
000330 8d c2 9c 42 59 07 c7 3f d2 21 b6 cc a4 33 b6 3f
       0.1799117636924347 0.08672552106703016
000340 90 d5 a4 af 29 9e c9 3f a3 26 a0 24 f7 c4 ce bf
       0.20013924671517858 -0.24038590706213822
000350 19 66 5d 51 3c f9 ca 3f 89 97 23 dd f9 d1 d3 3f
       0.21073106739895378 0.309690919834218
000360 f8 32 1b 3c b4 ae 7a 3f 5d 82 60 c8 eb 6e df bf
       0.006514267007969414 -0.49114508216920233
000370 67 4d 07 f3 1d ac c4 3f 68 60 0b d8 d1 72 c3 3f
       0.1615025936758727 0.15194151925129806
000380 bc d0 9f be ba b1 e0 bf 30 2c 62 43 09 56 c4 3f
       -0.521695492089314 0.15887561598023714
000390 42 b0 4b 15 e3 cd b7 3f b9 39 ac d8 73 3e d3 bf
       0.09298533697045833 -0.30068679961632544
0003a0 b9 75 55 b1 99 9b dc bf e5 9c dd 78 ec e5 db 3f
       -0.4469970924163494 0.43590843013084984
0003b0 ea 5d c9 a5 15 b7 bb 3f 50 d6 5d ae 68 c1 de bf
       0.10826239869617607 -0.48055474307998214
0003c0 10 f2 d1 92 21 8c c6 bf 02 a4 5d a3 58 08 92 3f
       -0.17615146321249187 0.017609963389450208
0003d0 9b c0 77 2f 57 b6 c5 bf 46 ea e0 7b 3d 73 dd 3f
       -0.1696270925308497 0.46015870187298835
0003e0 5b 69 58 28 4a fb b9 bf 1f aa af 6a 4e 9f a7 bf
       -0.10149062619203646 -0.046137285731522086
0003f0 3a 2d 5a 25 fb b8 ce 3f 77 26 40 42 23 64 f1 bf
       0.24002017330017528 -1.086947687903743
000400 f7 2b e5 c3 0d b3 ae 3f 10 02 2e b0 0b aa b8 3f
       0.05995982185648779 0.0963446908117549
000410 82 2f 73 43 c2 f4 53 3f 47 b1 73 7b 63 c9 c2 3f
       0.0012180230240117222 0.14677089240957228
000420 59 3b 1e 06 bb 7e d6 bf d4 5a e6 e2 19 7c e0 3f
       -0.3514850196597102 0.5151490623128105
000430 1e 4a 4f f7 82 f3 e0 3f ae 07 77 9a 87 81 e3 3f
       0.5297255354183255 0.6095617310422676
000440 9e 24 b0 d5 d1 dc 95 bf eb aa 17 d7 71 54 a2 bf
       -0.021350172679409078 -0.0358005118431118
000450 06 a6 5c be 07 bb c3 3f c1 0a 4b e6 a9 85 c5 3f
       0.15414521021857314 0.16814159149915578
000460 09 1e 00 f3 37 32 e5 bf 33 01 48 4e e4 8a c3 3f
       -0.6623801942923261 0.15267614195182375
000470 cb f3 d8 d1 41 25 b3 3f 83 fc 56 77 bb 48 9f bf
       0.0747872483561444 -0.03055088916675831
000480 ae 62 d9 d0 b8 eb d2 bf 24 82 47 08 4b ed ea bf
       -0.29563732524324393 -0.8414664422708182
000490 3a 8f 1e b2 3b 96 e9 3f f0 2a 16 84 8a 1f a1 bf
       0.79958901204052 -0.03344376432786145
0004a0 2d b6 89 b0 34 ee 95 3f ad ef 56 ca a2 d5 e4 bf
       0.02141649558546115 -0.6510786010689934
0004b0 a9 bd 57 46 34 e1 c4 bf 77 ac c2 1e ec ed d5 bf
       -0.16312268671707145 -0.34264662746381397
0004c0 6c e0 7e 3d a1 84 cb bf 53 d3 3c b1 74 72 f1 bf
       -0.21498504164424348 -1.0904433177322133
0004d0 81 1b aa 32 4f 30 d1 3f 0d 47 53 bc 63 9f d6 3f
       0.268573569752725 0.353478368674687
0004e0 fa 92 bf d7 7b 6f 9d 3f 22 d8 74 37 51 63 e7 bf
       0.028745589297517228 -0.7308736880429516
0004f0 a9 26 79 2e b2 dc c4 3f eb 0c 6d b9 06 98 c1 bf
       0.16298510808183167 -0.1374519734764371
000500 6f 84 c5 24 21 7e e2 3f ed 20 79 3e 80 57 d1 3f
       0.5778966634935737 0.27096563435453797
000510 ae da c7 bd 2e 80 e1 3f d7 2e 24 32 76 47 cf bf
       0.5468972880033414 -0.2443683380919228
000520 7d 15 2d 0f 9d d3 cb bf d0 c6 01 a4 a3 0c b2 3f
       -0.217395431909761 0.07050535921168977
000530 86 0d 23 55 7c 0c b4 bf 88 e8 11 8a 00 14 d8 bf
       -0.07831551626718722 -0.3762208317126654
000540 08 a3 cb c1 3a 64 de bf 8d 11 ef 6c c2 1e da bf
       -0.4748675243886713 -0.4081274093444101
000550 46 e4 ab 43 26 f4 ca bf 31 f5 50 b5 50 9d ca 3f
       -0.21057585052747835 0.2079258809407434
000560 d6 d9 ce 68 5a 2b aa 3f 39 42 f2 67 5f 91 e1 3f
       0.05111200837511702 0.5489956884576436
000570 5b f2 6e 6a 14 22 d6 3f ea 13 41 bb a4 a4 d2 bf
       0.3458300628078967 -0.2912990406660457
000580 ff f3 c1 80 ef 26 d6 3f b0 47 f5 11 2a ba c7 3f
       0.3461264378927921 0.1853687846838148
000590 08 05 0b 87 ae f4 c7 3f ff 6f 8c 0c 54 8b d0 3f
       0.18715459436320026 0.258503925566174
0005a0 6a 50 43 33 f5 6b 8c bf c3 e5 8c b5 e4 a8 dd bf
       -0.013877788187905266 -0.4634334347680033
0005b0 61 da 40 45 d7 09 d9 bf ac 2b 0f 7c b4 d7 bc bf
       -0.3912256408979485 -0.11266639736929446
0005c0 92 56 92 69 a1 75 b9 3f 27 76 25 bc 2a 11 ba 3f
       0.09945114924843271 0.10182444661537514
0005d0 a6 cc 3d 35 d3 a4 cc bf 4e 4c e7 9c a8 37 da 3f
       -0.2237800607650559 0.40964713404281816
0005e0 6d 09 ee a3 e5 0d aa bf cf 6f d7 74 18 77 cb bf
       -0.0508872759446771 -0.21457200722841072
0005f0 26 a1 4d 21 3c 88 d2 3f 60 0a 6f 2b 80 e6 cc bf
       0.2895651173808055 -0.2257843219832294
000600 b6 3e ab 5b d6 ba e1 3f 0c 4b 9d a4 98 44 e3 3f
       0.5540572920235352 0.6021235671163097
000610 c3 6b 17 c2 d5 fa e3 3f 06 bf 11 f7 17 33 de 3f
       0.624369505963266 0.4718685066973055
000620 55 d2 60 d2 6c aa cc 3f 27 aa 3d 31 9e b7 e5 3f
       0.2239509608495093 0.6786642991767778
000630 30 9e 54 7b 85 f6 eb 3f f5 c3 18 cd c6 05 ec 3f
       0.8738429459380708 0.8757051473422722
000640 78 56 c2 04 05 05 b4 bf 55 f4 a2 5f b8 ac e0 3f
       -0.07820159307660812 0.521084009924048
000650 1b a0 1e ec 78 37 d0 bf c8 8f 34 3c 6b ad dc 3f
       -0.2533857637267844 0.4480846488897865
000660 da bb c2 e4 69 c4 e7 3f bc 59 ab 1d ae 59 e5 3f
       0.7427262752515802 0.6671972827414758
000670 aa 5f 2e 67 10 76 db bf bb e0 16 15 6c d8 e0 3f
       -0.4290810592296973 0.5264187251950924
000680 13 99 d4 09 6e a8 a2 3f f5 c9 ff de c1 47 da bf
       0.036441267681128896 -0.41062971856368274
000690 75 0e 05 ed 49 e8 e1 3f c0 7b b2 a5 fd 33 ea 3f
       0.5596055630962399 0.8188465343736127
0006a0 ba 02 b8 72 c5 aa d6 bf 04 45 2d 45 c9 8c ed 3f
       -0.35417305186278336 0.9234358168706938
0006b0 ad 29 0d 6a d6 0d ec 3f d9 f5 7c 45 af 6f e5 3f
       0.8766891547505132 0.669883380621907
0006c0 46 3a f2 71 7f 2b d2 bf 4b 71 78 ca 15 56 d2 bf
       -0.2839048969989658 -0.28650421879298865
0006d0 0c 5d d6 90 d3 61 e0 3f 26 89 d6 05 1f 6c 88 3f
       0.5119417027334818 0.011924974790251296
0006e0 bb 51 b0 ea b3 b5 f0 3f 6a fd 04 94 28 4f ba bf
       1.0443610351113495 -0.10277036298520206
0006f0 e3 4f ed 9c 27 74 ec 3f 03 ea fc 1e 74 a9 dc 3f
       0.8891790451984857 0.4478426268211992
000700 8d b3 09 2a db 85 f2 3f 2b 26 44 f4 9f 09 de 3f
       1.157679714403659 0.4693374524509603
000710 65 1a de a0 30 98 e4 3f 41 12 77 1e 9a a6 b1 3f
       0.6435778753228304 0.06894839519288444
000720 f0 c0 50 3e 01 70 ef 3f e0 16 c4 5c e3 f3 d0 3f
       0.9824224679087177 0.26488575038125184
000730 6f 8e b7 97 70 1c e2 3f 4c 50 5d 7d d1 26 e5 3f
       0.5659716571066847 0.6609885643506543
000740 0e d6 a4 c8 50 c6 e1 3f 21 4d 78 68 ff ff e5 bf
       0.555458442576027 -0.6874997177532444
000750 3d e3 9f 96 dd 96 e2 3f 6a af 20 2d 71 a2 f0 3f
       0.580916208447071 1.0396587145614498
000760 15 8e ae be f5 7a c2 bf ac 61 83 41 13 b3 c0 3f
       -0.14437743960034824 0.13046494196784175
000770 8d 7f a6 77 1b 7f df 3f a8 1c 6e 16 f7 4b bb 3f
       0.4921330135784892 0.1066278867493674
000780 25 e2 d5 1b 24 86 ed 3f 22 1f d3 71 8f c4 e8 3f
       0.9226246398603207 0.7739941809786368
000790 a8 a8 11 26 f8 d4 b0 3f 5a 03 43 a8 99 69 f1 3f
       0.06574965409677935 1.0882813046193491
0007a0 56 e8 0c 78 1f 1f da 3f 5b b8 a2 54 ea 04 e3 3f
       0.40814959262536854 0.5943500187911569
0007b0 98 90 33 bb 87 a6 e2 bf ca b5 2f 52 22 45 e9 3f
       -0.5828283935811838 0.7896892171099179
0007c0 de 5e c9 10 82 5b a1 bf 2c 59 4c 47 c5 b6 ed 3f
       -0.033901276158472035 0.9285608665984788
0007d0 a6 c9 c1 9e c2 9c f7 3f 0f 3e 95 f4 da 1d ed 3f
       1.475771541733232 0.9098944451342862
0007e0 09 d6 19 46 c1 f1 ec 3f 4b db f0 05 19 9d e9 3f
       0.9045111054571758 0.8004269710571433
0007f0 4a e2 a3 e5 b1 60 b7 bf dd 2f d6 50 3f 73 e3 3f
       -0.09131919723939422 0.607818277248494

who f8 [2, 15]
000000 ba b6 b6 6c 52 56 97 bf 60 8d df 80 24 c9 c5 3f
       -0.022790229688033327 0.17020088474883277
000010 e0 d3 68 54 d0 9c db 3f 6b f2 dc c2 5c 68 f9 3f
       0.4314461540519101 1.5879790889586285
000020 6f a4 5f 5d 8e 8d 0b 40 50 26 10 4a 67 c4 e5 bf
       3.4441191954434127 -0.6802250334305402
000030 99 3a f1 00 e5 5a 03 40 80 89 74 94 0b 8d 04 40
       2.419382102357599 2.5688697431625656
000040 e0 64 3b 46 cf f7 16 40 54 29 5a 5f b7 37 11 40
       5.742001626372456 4.304410447958009
000050 91 13 10 d2 c2 c8 c3 3f 0b 23 48 93 98 34 fd bf
       0.15456424004528604 -1.8253408196634975
000060 26 af e1 6e c3 a6 0a c0 dc 82 4f 40 b5 4f d0 bf
       -3.331427446615538 -0.2548649910004721
000070 92 fe 96 28 97 77 ed 3f ce aa b8 80 41 3a ab bf
       0.9208484452028236 -0.05317883201890582
000080 37 c7 52 07 07 68 be bf f8 f2 03 bb e6 07 e6 3f
       -0.11877483300011425 0.6884645130772631
000090 06 0b 28 40 26 35 fc bf 23 10 f9 83 f8 1e 0d c0
       -1.7629759317503058 -3.640122443235684
0000a0 cf 76 1a 7b 88 79 e3 3f 0e 8d 86 c5 d9 13 de bf
       0.6085855869639206 -0.4699615887604559
0000b0 82 4e d6 a5 eb 43 09 c0 14 39 ad 54 33 93 0f c0
       -3.1581643062616545 -3.9468752494204953
0000c0 02 91 e2 c2 31 19 19 c0 92 33 42 cf 16 7e f3 bf
       -6.27460388667919 -1.2182834716834106
0000d0 25 bf fb c8 9f 33 04 40 65 49 19 30 40 7b 00 40
       2.5252071096255286 2.0601810224263084
0000e0 06 47 62 bd 61 26 d8 bf 9e b3 5d 91 db f0 ce 3f
       -0.3773426389171707 0.24172539327574055
